exercises/1_5_CNN_Layers/saved_models/fashion_net_ex.pt (torch_old, 111237 bytes, 8 tensors)

conv1.weight f4 [10, 1, 3, 3]
1.5485307 -1.3375684 -0.30186385 1.415204 -0.5095488 -0.7769511 0.7553256 -0.654856
0.003261123 -0.14872581 0.6945812 1.2984179 0.41233066 0.5744449 0.01723868 -0.31245524
-1.2787309 -1.2578933 -0.074699625 0.654187 -0.6202821 0.1237194 -0.14695323 1.2095859
0.4828751 0.14796187 0.07282535 -0.45102647 0.36745477 -1.1796168 -0.0701568 -1.1270052
-2.2051818 0.58340365 -0.4096495 -1.3125427 -0.23507093 0.5464603 1.0032669 -1.1012187
-0.6177769 1.805093 -1.134405 -0.693776 0.9741619 0.7593678 0.8139496 0.7227413
-0.12368992 0.104955845 -0.07606957 0.029552113 0.24882744 0.055462305 -0.13790496 0.9062408
0.09855875 0.30709222 0.5427798 -0.72271174 0.6597131 0.18972258 -0.77504146 0.029739952
0.18494439 0.2004666 -0.1330002 0.006768473 -0.20496422 -0.19733703 -0.1724726 0.0661989
-0.47437122 0.7720435 -0.2501809 -0.95369756 0.881786 0.17651816 -1.3545549 1.119049
0.099208765 -0.18529443 0.02265045 -0.3050227 -0.041948706 -0.266224 -0.32763705 -0.28344545
-0.15116143 -0.22609493
00000000: 4136 c63f 7135 abbf e68d 9abe 6825 b53f
00000010: ca71 02bf 44e6 46bf 055d 413f a5a4 27bf
00000020: 91b8 553b 944b 18be 13d0 313f 8f32 a63f
00000030: 011d d33e d20e 133f 2238 8d3c 22fa 9fbe
00000040: 74ad a3bf a602 a1bf 1efc 98bd cd78 273f
00000050: cfca 1ebf 9960 fd3d e87a 16be b6d3 9a3f
00000060: 683b f73e 5183 173e 7525 953d f1ec e6be
00000070: 0823 bc3e affd 96bf 5eae 8fbd b541 90bf
00000080: b321 0dc0 f159 153f 94bd d1be 6601 a8bf
00000090: 6fb6 70be d2e4 0b3f 0d6b 803f bcf4 8cbf
000000a0: a026 1ebf 4a0d e73f 2f34 91bf 4e9b 31bf
000000b0: ad62 793f ee65 423f 005f 503f 9305 393f
000000c0: 2451 fdbd 17f3 d63d 5dca 9bbd 4617 f23c
000000d0: 9fcc 7e3e 712c 633d f536 0dbe 66ff 673f
000000e0: 2bd9 c93d 313b 9d3e 9ef3 0a3f a303 39bf
000000f0: f5e2 283f a346 423e 1e69 46bf 33a1 f33c
00000100: 1062 3d3e 1e47 4d3e 3431 08be 11ca dd3b
00000110: 24e2 51be b812 4abe a89c 30be 4a93 873d
00000120: c9e0 f2be a5a4 453f b617 80be 8625 74bf
00000130: babc 613f 2dc1 343e 0e62 adbf ff3c 8f3f
00000140: f72d cb3d d3bd 3dbe 708d b93c ef2b 9cbe
00000150: 68d2 2bbd 834e 88be 0bc0 a7be c31f 91be
00000160: 10ca 1abe 6e85 67be

conv1.bias f4 [10]
-0.056794055 -0.0041549024 -0.0030321938 0.74041325 -0.25103664 -0.003718338 -0.012120343 -0.32825023
0.004655802 -0.25702116
00000000: e2a0 68bd d925 88bb c5b7 46bb b98b 3d3f
00000010: e087 80be 5caf 73bb 6794 46bc 6a10 a8be
00000020: b38f 983b 4798 83be

conv2.weight f4 [20, 10, 3, 3]
-0.32931075 -0.3116927 0.058793522 -0.048776627 -0.06961666 0.40373573 -0.081159495 -0.10781093
-0.096964166 -0.24676307 -0.12220573 -0.1718608 -0.27060094 0.020429544 -0.014744067 0.05358829
0.22616664 -0.23634283 -0.22342844 0.14221561 0.040563848 -0.10807514 0.21947853 -0.24915683
0.1440348 0.17204697 -0.33607286 0.024111914 -0.2276107 0.1463851 0.01403091 0.23858447
0.1311728 0.12338192 0.52451986 0.23010185 -0.037585992 0.11941582 0.02997284 0.07900364
0.07235378 -0.22335456 0.00816978 -0.09472159 -0.058865238 -0.13419516 0.25355992 -0.047059733
-0.13762242 0.30867296 -0.12537347 0.28717634 0.2781029 -0.5088694 -0.016299525 0.030643398
0.5270192 -0.1764218 0.33380198 0.12094389 0.017872069 0.21803308 -0.3782152 0.04208185
-0.027678387 -0.030586902 0.032735534 0.054326855 0.05563055 -0.01589073 -0.048541296 -0.00970606
-0.0562571 -0.036988445 -0.27762643 -0.010526371 0.18963705 0.028919 -0.009241411 -0.063201785
-0.03619323 0.08740308 0.088146664 0.079347454 -0.030643173 -0.091736175 -0.09334192 -0.06386481
0.08550876 0.09540754 0.16854364 0.06644523 -0.0607782 0.05816592 0.10221688 -0.04907025
-0.113932185 0.31164926 -0.122954525 0.048599657 -0.007829862 0.058463983 -0.16230237 0.07182677
-0.014957931 -0.1271963 -0.06860332 -0.15422074 -0.12692553 -0.15622447 0.10738007 0.20117745
-0.24328546 -0.0075614364 0.27396598 -0.35085538 -0.0028407164 0.39642626 0.2894105 0.043435674
0.1995855 0.43963853 -0.18064186 -0.09685137 0.27718422 -0.2157293 0.20094736 0.38458654
-0.052465778 -0.095148966 -0.0035685545 -0.17050335 -0.03758532 -0.07035126 -0.017839564 0.011734633
-0.2669255 0.30892366 -0.021512836 -0.48894572 0.06765371 0.60062325 -0.1840305 -0.13489251
0.08332427 -0.07254583 0.09731266 0.13683331 -0.23940873 -0.02621829 0.22646013 0.082890674
-0.124878794 -0.09586087 0.06258849 -0.103307635 0.026912285 -0.041816752 0.033857726 0.027428417
0.1000791 -0.07738695 -0.029198004 0.2838 0.29736403 -0.063369416 -0.040621404 0.20127265
0.043853287 -0.09231862 -0.031663354 0.08315814 0.092906125 0.08939005 0.06470344 -0.005838327
0.018456616 0.024152212 0.09745047 0.07710349 0.0120294355 0.020467984 0.12402394 -0.018916104
-0.024157867 0.21884063 -0.14887354 0.11595461 0.22499508 -0.21034056 -0.23326688 -0.23691034
0.12759091 -0.36623204 0.16919361 -0.057729278 0.22342421 0.19693325 0.102454804 0.09872406
0.018976776 0.3455399 -0.037103113 0.009095432 0.22282998 -0.1542514 -0.22619592 -0.00391952
-0.47324482 -0.029658472 -0.28578982 -0.062577516 0.14986922 -0.032000918 0.095491335 -0.04395212
0.04337893 -0.11704872 -0.039146796 -0.05449207 -0.16344148 -0.02789504 -0.3087694 -0.39083144
-0.12511367 -0.3103079 0.1994828 -0.03710072 0.04177345 -0.29626912 -0.27699777 0.37144685
-0.018744512 -0.3790721 -0.12617901 0.23693387 -0.10985283 0.21411002 0.0019925134 0.21280466
0.22365806 0.31471276 -0.12439696 -0.012782428 0.03414525 0.014672643 0.03333734 -0.00093105325
0.10139621 -0.10300144 -0.0029536083 -0.049381424 0.15793775 0.042092085 -0.092340074 -0.007635982
00000000: 6b9b a8be 3096 9fbe 7ad1 703d 00ca 47bd
00000010: 2e93 8ebd 73b6 ce3e f336 a6bd facb dcbd
00000020: 2695 c6bd 75af 7cbe ff46 fabd 47fc 2fbe
00000030: 358c 8abe dc5b a73c 1991 71bc 657f 5b3d
00000040: 3a98 673e db03 72be 6dca 64be f8a0 113e
00000050: 4726 263d 8056 ddbd fbbe 603e f822 7fbe
00000060: dc7d 133e 152d 303e be11 acbe 5986 c53c
00000070: c812 69be fae5 153e e7e1 653c 7d4f 743e
00000080: 2a52 063e a9af fc3d ef46 063f d29f 6b3e
00000090: c5f3 19bd 4890 f43d 9a89 f53c a9cc a13d
000000a0: 382e 943d 0fb7 64be 8ada 053c 65fd c1bd
000000b0: ad1c 71bd 756a 09be 9bd2 813e b5c1 40bd
000000c0: e4ec 0cbe 620a 9e3e e761 00be c708 933e
000000d0: 8163 8e3e 4445 02bf 9586 85bc dd07 fb3c
000000e0: bbea 063f eba7 34be 18e8 aa3e 6eb1 f73d
000000f0: 7268 923c 1044 5f3e 6ca5 c1be 055e 2c3d
00000100: c9bd e2bc 6291 fabc b215 063d d685 5e3d
00000110: dcdc 633d 472d 82bc 3dd3 46bd 2b06 1fbc
00000120: d86d 66bd 3281 17bd 0d25 8ebe cd76 2cbc
00000130: 3730 423e 8ae7 ec3c 4a69 17bc f06f 81bd
00000140: 5a3f 14bd 6300 b33d 3d86 b43d eb80 a23d
00000150: 6407 fbbc 2de0 bbbd 0c2a bfbd 8ecb 82bd
00000160: 371f af3d 0765 c33d b496 2c3e 7014 883d
00000170: 90f2 78bd 633f 6e3d 1557 d13d e3fd 48bd
00000180: 4755 e9bd 7e90 9f3e 95cf fbbd 6f10 473d
00000190: d248 00bc ee77 6f3d 9832 26be ea19 933d
000001a0: 1c12 75bc bf3f 02be e67f 8cbd 0bec 1dbe
000001b0: c4f8 01be 4ff9 1fbe 15ea db3d 7601 4e3e
000001c0: d31f 79be edc5 f7bb 4545 8c3e 51a3 b3be
000001d0: 502b 3abb 62f8 ca3e 9d2d 943e 9be9 313d
000001e0: 2460 4c3e 4d18 e13e 2efa 38be 035a c6bd
000001f0: 17eb 8d3e 24e8 5cbe 25c5 4d3e 87e8 c43e
00000200: 5be6 56bd 76dd c2bd 69de 69bb 6e98 2ebe
00000210: 11f3 19bd 5214 90bd 4724 92bc 9e42 403c
00000220: 76aa 88be 3e2b 9e3e b03b b0bc 1857 fabe
00000230: 078e 8a3d 72c2 193f 7e72 3cbe 4321 0abe
00000240: eaa5 aa3d e892 94bd dc4b c73d 081e 0c3e
00000250: 9027 75be bdc7 d6bc 2ae5 673e 96c2 a93d
00000260: 74c0 ffbd b452 c4bd 652e 803d f492 d3bd
00000270: 2777 dc3c 0b48 2bbd 66ae 0a3d 8fb1 e03c
00000280: 45f6 cc3d 0d7d 9ebd a730 efbc 3c4e 913e
00000290: 1940 983e d3c7 81bd a162 26bd 6b1a 4e3e
000002a0: 819f 333d 8b11 bdbd 6fb1 01bd d14e aa3d
000002b0: 9145 be3d 2112 b73d 3d83 843d 704f bfbb
000002c0: 5432 973c dcda c53c 1d94 c73d 6fe8 9d3d
000002d0: 1c17 453c 79ac a73c 4300 fe3d f2f5 9abc
000002e0: b8e6 c5bc c217 603e 4e72 18be 9c79 ed3d
000002f0: 1c65 663e 8463 57be 83dd 6ebe a098 72be
00000300: 31a7 023e c482 bbbe 1741 2d3e 8975 6cbd
00000310: 51c9 643e dfa8 493e d3d3 d13d d72f ca3d
00000320: 2f75 9b3c 9bea b03e 6ff9 17bd 0205 153c
00000330: 8b2d 643e 14f4 1dbe e79f 67be 516f 80bb
00000340: 254d f2be 53f6 f2bc 0b53 92be a428 80bd
00000350: 5177 193e 6513 03bd f690 c33d 2307 34bd
00000360: 1bae 313d 3db7 efbd 6458 20bd 1433 5fbd
00000370: 345d 27be 2484 e4bc 0617 9ebe 0f1b c8be
00000380: cc1d 00be ade0 9ebe 3845 4c3e edf6 17bd
00000390: a31a 2b3d 96b0 97be a7d2 8dbe 482e be3e
000003a0: 178e 99bc bd15 c2be 1235 01be cb9e 723e
000003b0: 85fa e0bd a83f 5b3e d494 023b 77e9 593e
000003c0: 9e06 653e 0822 a13e d5c3 febd 646d 51bc
000003d0: e4db 0b3d 8665 703c bc8c 083d ed11 74ba
000003e0: d1a8 cf3d 6bf2 d2bd 5391 41bb 2d44 4abd
000003f0: 6fba 213e c068 2c3d cb1c bdbd 4237 fabb

conv2.bias f4 [20]
-0.19787416 0.19056343 0.38709527 -0.20306805 -0.5816407 0.43078235 0.40159985 -0.20490819
-0.04878915 -0.2944343 -0.36631447 0.20934245 0.17797956 -0.06020473 0.05038732 0.60410935
-0.10442194 -0.1663715 0.108689226 0.20757458
00000000: 869f 4abe 0f23 433e 5a31 c63e 12f1 4fbe
00000010: 68e6 14bf 818f dc3e 7f9e cd3e 74d3 51be
00000020: 22d7 47bd 18c0 96be 928d bbbe de5d 563e
00000030: 4640 363e 3c99 76bd ef62 4e3d e9a6 1a3f
00000040: 2cdb d5bd 4a5d 2abe 7598 de3d 6e8e 543e

fc1.weight f4 [50, 500]
0.19524966 -0.043214124 -0.105267204 0.11093321 -0.14220713 0.055272434 -0.08284135 0.08793767
0.05255243 0.13866684 0.033394556 0.094319895 -0.09912997 -0.097719975 -0.04771484 -0.17062604
0.017062675 -0.17556286 -0.103733465 0.08205449 0.003673094 -0.057149164 -0.2376541 0.054014027
0.14878184 -0.093591854 0.14070852 0.046530843 -0.008684204 -0.02855402 -0.033234216 0.055064235
-0.021128325 0.12489757 0.05423486 0.018354738 0.008831033 -0.028246973 0.028241472 -0.034510538
-0.075935535 -0.031653237 -0.05626303 -0.098855175 -0.14878741 0.15905209 0.068325154 -0.09854751
-0.090692796 0.06828249 0.07432725 0.08755955 -0.047970477 0.008112841 -0.09784694 0.033225253
-0.12317698 0.06618789 -0.020601308 -0.026699506 0.019967845 -0.10978067 0.03667833 -8.593208e-05
-0.11243937 -0.15617037 -0.04016384 0.045685697 -0.0044429502 0.08350243 -0.04308877 -0.1725158
0.07920663 0.13289425 -0.012326362 -0.06785029 0.046077423 -0.027965354 -0.14345513 -0.0067217574
0.050015733 -0.10368427 -0.07271465 -0.042782523 -0.11330203 0.041284088 0.09355859 -0.040777355
-0.025260268 -0.009616073 7.1612067e-07 -0.0925368 -0.024334261 -0.04484046 0.039052323 -0.04658318
-0.20834862 -0.10526881 -0.03184758 0.10761705 0.061092 0.098440185 0.059834182 0.22703132
-0.032487337 0.058288373 0.025514867 0.090626724 0.14772426 -0.11415833 0.07887879 0.00513892
-0.063817136 -0.11990383 0.036602207 -0.07999877 -0.061143454 -0.12854584 -0.14917088 -0.0011366706
-0.19474922 0.021476604 -0.50452995 -0.36046797 0.1335893 -0.1513307 0.20726763 -0.3092129
0.0029701255 -0.028509017 -0.10403641 0.1027136 -0.061943788 -0.14919493 -0.04353621 -0.04523333
0.10776367 0.028089618 -0.0065797023 -0.04410327 -0.03984722 0.03280521 -0.010662923 0.13208771
-0.011915107 0.08901502 0.10438772 0.05122042 0.21758184 0.048228793 0.06413843 -0.1283384
0.09436706 0.2614553 -0.03836624 -0.015646271 -0.16055937 -0.099363044 -0.07739372 -0.028728655
0.016396582 -0.075033225 0.13617417 -0.25032395 -0.037798062 -0.01749471 -0.055105135 0.12631318
-0.26071858 -0.0061669676 -0.107883535 0.0609807 0.20466667 -0.3181992 -0.06703524 0.2737581
-0.21468548 -0.03067058 -0.28005716 0.081369326 -0.052107926 0.13953811 -0.03297221 0.1536495
-0.1131842 0.024405802 0.022372365 0.013718159 0.0024707504 0.040356774 -0.11589439 -0.036057893
0.0047281976 -0.109390534 -0.11823166 -0.039751515 0.15586197 -0.14120102 -0.22784323 0.10587716
-0.022103166 -0.1259305 0.112626456 -0.040592924 -0.22495344 -0.17720501 -0.115389094 0.069256596
0.033857327 -0.094751246 0.05785221 0.03114306 0.09352135 0.2385418 0.13408142 -0.14212474
0.07235639 0.3105603 0.07209488 -0.030220134 -0.0842818 0.09061966 0.18072759 -0.009201955
-0.31906652 -0.03799725 -0.116705745 -0.27361903 -0.014276257 0.18043527 -0.056080475 -0.018345008
-0.08222335 0.08449723 -0.21836641 -0.07338946 0.009872079 0.051868863 -0.061237384 -0.04637476
-0.087084055 -0.039494477 0.09325411 -0.007163807 0.04297907 0.06108505 -0.106318966 0.050259363
-0.01776137 0.093992814 0.11925862 0.108844034 0.035526086 0.005498318 -0.0076962183 -0.18424396
00000000: 87ef 473e 4b01 31bd 5596 d7bd f330 e33d
00000010: bf9e 11be 5965 623d baa8 a9bd aa18 b43d
00000020: 3841 573d aefe 0d3e bbc8 083d ca2a c13d
00000030: a704 cbbd 6921 c8bd a370 43bd 98b8 2ebe
00000040: 06c7 8b3c c0c6 33be 3672 d4bd 2f0c a83d
00000050: 4bb8 703b 3e15 6abd 995b 73be d03d 5d3d
00000060: 445a 183e 16ad bfbd e515 103e 2097 3e3d
00000070: 3148 0ebc 1fea e9bc 9a20 08bd 098b 613d
00000080: 4f15 adbc 4cca ff3d 5f25 5e3d ad5c 963c
00000090: 09b0 103c 3266 e7bc a95a e73c ec5a 0dbd
000000a0: 1784 9bbd d3a6 01bd 1074 66bd 9574 cabd
000000b0: ba5b 18be 8dde 223e 0fee 8b3d 47d3 c9bd
000000c0: 25bd b9bd b1d7 8b3d e338 983d 6c52 b33d
000000d0: b17c 44bd b9eb 043c fa63 c8bd 3417 083d
000000e0: 3644 fcbd 848d 873d 13c4 a8bc ecb8 dabc
000000f0: 9b93 a33c b0d4 e0bd 043c 163d 6f36 b4b8
00000100: 9d46 e6bd 20eb 1fbe d782 24bd ed20 3b3d
00000110: 2b96 91bb 5203 ab3d da7d 30bd fba7 30be
00000120: 1637 a23d 6e15 083e 82f4 49bc 18f5 8abd
00000130: aebb 3c3d 9917 e5bc e7e5 12be 3042 dcbb
00000140: 4cdd 4c3d 6b58 d4bd 6beb 94bd ba3c 2fbd
00000150: e50a e8bd 8119 293d a59b bf3d 2806 27bd
00000160: 9fee cebc bc8c 1dbc 703b 4035 ef83 bdbd
00000170: a558 c7bc a1aa 37bd 54f5 1f3d 01ce 3ebd
00000180: 5759 55be 2d97 d7bd 9c72 02bd 5466 dc3d
00000190: 9b3b 7a3d 029b c93d b014 753d e67a 683e
000001a0: 7111 05bd cabf 6e3d 8e04 d13c 819a b93d
000001b0: 0745 173e d8cb e9bd 348b a13d 6364 a83b
000001c0: 8fb2 82bd 2490 f5bd 32ec 153d 65d6 a3bd
000001d0: 8f71 7abd 85a1 03be 40c0 18be 56fc 94ba
000001e0: 576c 47be b4ef af3c e028 01bf 428f b8be
000001f0: a2cb 083e 6ff6 1abe f73d 543e 2751 9ebe
00000200: 70a6 423b be8b e9bc 0b11 d5bd 825b d23d
00000210: c5b8 7dbd 8ec6 18be 0653 32bd 9646 39bd
00000220: 33b3 dc3d 331c e63c 8b9a d7bb a1a5 34bd
00000230: d736 23bd c25e 063d 8ab3 2ebc 0042 073e
00000240: 9537 43bc 824d b63d 3bc9 d53d 81cc 513d
00000250: c6cd 5e3e 8e8b 453d 025b 833d 246b 03be
00000260: 8443 c13d 78dd 853e eb25 1dbd 9c2c 80bc
00000270: ad69 24be da7e cbbd 9980 9ebd 5b58 ebbc
00000280: 2052 863c 05ab 99bd 3e71 0b3e 762a 80be
00000290: 24d2 1abd 1151 8fbc ecb5 61bd 3e58 013e
000002a0: e87c 85be 4614 cabb 0bf2 dcbd e6c6 793d
000002b0: 2494 513e 01eb a2be c649 89bd 062a 8c3e
000002c0: 83d6 5bbe de40 fbbc a763 8fbe f6a4 a63d
000002d0: 1f6f 55bd 14e3 0e3e de0d 07bd 4b56 1d3e
000002e0: 1ecd e7bd adee c73c 4046 b73c 21c2 603c
000002f0: 50ec 213b 254d 253d 0a5a edbd 71b1 13bd
00000300: ffee 9a3b 2508 e0bd 7123 f2bd 7cd2 22bd
00000310: 489a 1f3e 0097 10be bc4f 69be 20d6 d83d
00000320: b311 b5bc edf3 00be b3a8 e63d c444 26bd
00000330: 325a 66be 3b75 35be 1e51 ecbd 67d6 8d3d
00000340: fbad 0a3d f10c c2bd 70f6 6c3d bb1f ff3c
00000350: 1f88 bf3d 4d44 743e a44c 093e 2689 11be
00000360: 962f 943d c201 9f3e 7ba6 933d 3790 f7bc
00000370: f09b acbd cd96 b93d a710 393e ccc3 16bc
00000380: b05c a3be 01a3 1bbd 6c03 efbd cb17 8cbe
00000390: f6e6 69bc 06c4 383e a4b4 65bd 4548 96bc
000003a0: b764 a8bd e20c ad3d 729b 5fbe 374d 96bd
000003b0: 80be 213c 7274 543d 0dd4 7abd 76f3 3dbd
000003c0: 2059 b2bd f6c4 21bd 03fc be3d 5ebe eabb
000003d0: d20a 303d 5134 7a3d c2bd d9bd c3dc 4d3d
000003e0: 4b80 91bc 4e7f c03d dd3d f43d 9fe9 de3d
000003f0: cd83 113d 3c2b b43b 8f30 fcbb 73aa 3cbe

fc1.bias f4 [50]
0.08278746 -0.08077531 0.07712346 0.05449009 0.2565832 0.023173824 -0.025284195 -0.003727234
0.10524735 0.2205304 -0.037590962 0.104884624 0.12996705 0.04016961 0.077832274 0.14290468
-0.21130282 0.21607392 0.010945137 0.039594587 -0.036875848 0.046288073 0.04651756 -0.06751088
-0.01599339 -0.018085562 0.035742592 0.31867808 0.009786123 0.01584415 -0.0051796013 0.06519278
-0.13947326 0.036796574 0.036001872 0.281084 0.07397149 0.100437775 -0.09897595 -0.0057929815
0.02203592 0.12466718 0.16326176 0.07628823 -0.011429731 0.055181403 0.03327526 0.072229706
0.07286572 0.13033763
00000000: 798c a93d 876d a5bd e8f2 9d3d 0031 5f3d
00000010: e05e 833e 08d7 bd3c cd20 cfbc 9c44 74bb
00000020: ec8b d73d b9d2 613e fbf8 19bd c0cd d63d
00000030: 1516 053e e488 243d 8766 9f3d 9b55 123e
00000040: c45f 58be 7b42 5d3e 3b53 333c ef2d 223d
00000050: 210b 17bd 9098 3d3d 3289 3e3d 2543 8abd
00000060: 9204 83bc 2c28 94bc d366 123d c629 a33e
00000070: fa55 203c 97cb 813c a5b9 a9bb cb83 853d
00000080: 14d2 0ebe 01b8 163d b376 133d 3eea 8f3e
00000090: 5d7e 973d 52b2 cd3d e7b3 cabd 0dd3 bdbb
000000a0: ac84 b43c 8251 ff3d 172e 273e 013d 9c3d
000000b0: c443 3bbc e505 623d a44b 083d 2bed 933d
000000c0: 9f3a 953d 3a77 053e

fc2.weight f4 [10, 50]
0.33745223 0.10393291 -0.0022974452 -0.12886919 0.3380202 0.57970876 0.4836689 -0.16304156
0.7377899 0.34829575 0.23899606 -0.20328146 0.34681204 -0.09212027 -0.17326072 0.4858762
0.28160974 0.15239002 0.33513066 -0.24261998 -0.063182704 0.07364393 -0.09884885 -0.16647545
0.6112971 0.51213074 0.23661076 0.1616221 0.22766495 0.2439732 0.067797504 0.37565017
-0.06641237 0.10800556 -0.36178407 0.46862316 -0.0071297376 -0.08802283 -0.22162527 0.010038643
-0.15090661 -0.44435677 -0.28395104 0.3195387 -0.36070234 -0.18294048 0.20830165 0.22844014
0.50430715 -0.17872488 -0.3260163 0.14216454 -0.32431838 0.49282485 -0.3398876 0.54584104
0.4341818 -0.20688616 -0.277922 -0.22251758 -0.0023113466 0.28131407 0.36236832 -0.00020084565
0.49367338 -0.33585957 -0.3009174 -0.3485112 0.28186548 0.4077673 -0.019035075 0.42777905
0.43408304 0.3782494 -0.10361431 0.035421785 0.325263 -0.47682798 -0.29599744 0.59520674
-0.035202596 -0.34275594 -0.24279237 -0.574445 -0.14308484 -0.34010908 -0.41011617 -0.27372956
-0.4538333 -0.35748476 -0.3346055 -0.56358665 -0.03273549 -0.4994052 0.23822606 0.31809604
0.35054258 0.09277766 -0.5013494 0.6166198 0.5270389 0.18981364 0.41556787 -0.2891852
0.37689233 -0.16377719 0.49005294 -0.28373286 -0.37578383 -0.035761494 0.09182761 0.26397365
-0.16630277 -0.15794174 0.34771454 -0.2781158 0.39606357 0.3594808 -0.29939446 -0.26519543
0.006093643 0.008107623 0.080882356 -0.28185782 -0.0038733575 -0.34201708 0.22852063 0.3520456
-0.44061962 0.2998295 0.023453768 0.049168628 -0.14086726 -0.44777495 -0.20189454 0.5060705
0.3855961 0.4192215 -0.26455685 -0.2426417 -0.34702283 -0.49019325 0.16345058 0.4722027
-0.38572317 -0.28508368 0.29159033 0.35882533 0.4842475 0.4704782 -0.2203304 -0.22217396
-0.17824855 0.3873245 0.33227816 0.47375008 0.4322149 0.341092 -0.16288224 -0.066965856
-0.24078503 -0.6293964 -0.20886059 -0.1810766 -0.2409382 -0.21075302 -0.14725216 -0.22631961
0.32901552 0.25990057 -0.25476256 0.38020727 0.3372156 -0.102588095 -0.3434905 0.52870107
-0.28044105 -0.40669197 -0.36360908 -0.531166 0.13626398 -0.115296006 0.44897515 0.25491628
0.35643402 0.46251744 0.30120906 0.36307365 0.23084557 -0.34962714 -0.4315892 -0.4295112
-0.17925978 -0.15520404 0.21947889 -0.071665525 0.3087683 0.03446084 0.47369105 -0.1881336
0.36887914 0.307633 0.44365296 -0.03571626 -0.29834092 -0.18843243 0.51747686 -0.3039397
-0.032046672 -0.34870273 -0.12937015 0.2850552 -0.36668408 -0.04065844 -0.26545084 -0.33123946
0.4627702 -0.36418772 -0.4031882 -0.5009401 -0.15892728 0.39311525 -0.33106405 0.31019303
-0.2746702 -0.056697957 -0.37741008 -0.30768237 -0.35057315 -0.15250343 0.030100001 0.37532216
0.42557502 -0.20086588 -0.5986014 -0.036907487 0.3974124 0.4060926 0.36283728 -0.19182116
-0.41697884 0.22586034 -0.47589937 0.5127146 0.20452641 0.19513272 0.26429415 -0.32913595
0.48070556 0.49597737 -0.12169514 -0.025107117 0.34626982 -0.4863064 0.20026194 -0.39630002
00000000: 8ac6 ac3e c7da d43d bc90 16bb 49f6 03be
00000010: fc10 ad3e cb67 143f 73a3 f73e 5ef4 26be
00000020: cddf 3c3f d253 b23e 62bb 743e 0429 50be
00000030: 5991 b13e 8da9 bcbd 426b 31be c4c4 f83e
00000040: 272f 903e 210c 1c3e 3f96 ab3e 5f71 78be
00000050: ef65 81bd a1d2 963d 4471 cabd 8a78 2abe
00000060: f77d 1c3f 001b 033f 174a 723e 4480 253e
00000070: 0021 693e 1cd4 793e 6bd9 8a3d 3855 c03e
00000080: 3503 88bd 0532 dd3d c33b b9be 60ef ef3e
00000090: 93a0 e9bb 5045 b4bd bcf1 62be 1f79 243c
000000a0: 4387 1abe bb82 e3be 0862 91be 949a a33e
000000b0: faad b8be c054 3bbe 074d 553e 36ec 693e
000000c0: 461a 013f a803 37be 9ceb a6be 9593 113e
000000d0: 0f0d a6be 8a53 fc3e bf05 aebe 3dbc 0b3f
000000e0: 144d de3e f7d9 53be cb4b 8ebe a6db 63be
000000f0: f679 17bb 6608 903e 5788 b93e 189a 52b9
00000100: c2c2 fc3e c9f5 abbe d811 9abe 0f70 b2be
00000110: ac50 903e e0c6 d03e 72ef 9bbc db05 db3e
00000120: 2240 de3e e8a9 c13e bd33 d4bd 6f16 113d
00000130: df88 a63e cc22 f4be fa8c 97be 785f 183f
00000140: 9930 10bd b57d afbe 909e 78be d40e 13bf
00000150: d584 12be c722 aebe bffa d1be 4826 8cbe
00000160: d75c e8be 3e08 b7be 6951 abbe 3747 10bf
00000170: a615 06bd 0ab2 ffbe 88f1 733e 7cdd a23e
00000180: 517a b33e 3702 be3d 6f58 00bf ccda 1d3f
00000190: 05ec 063f 825e 423e 50c5 d43e 1510 94be
000001a0: 08f8 c03e 35b5 27be 38e8 fa3e 6f45 91be
000001b0: bd66 c0be a57a 12bd 1d10 bc3d 8e27 873e
000001c0: 464b 2abe 7bbb 21be a407 b23e 3265 8ebe
000001d0: d8c8 ca3e de0d b83e 3b4a 99be b2c7 87be
000001e0: 2fad c73b d6d5 043c a6a5 a53d ab4f 90be
000001f0: 28d8 7dbb dd1c afbe 5001 6a3e 523f b43e
00000200: e598 e1be 4183 993e 1e22 c03c 0b65 493d
00000210: 823f 10be c242 e5be 71bd 4ebe d68d 013f
00000220: da6c c53e 33a4 d63e ff73 87be 1177 78be
00000230: faac b1be 9cfa fabe 975f 273e 8dc4 f13e
00000240: 827d c5be 7df6 91be 544b 953e f4b7 b73e
00000250: 4aef f73e 85e2 f03e 4b9e 61be 9281 63be
00000260: ca86 36be 664f c63e 5d20 aa3e 5f8f f23e
00000270: 454b dd3e 9ca3 ae3e 9aca 26be 6525 89bd
00000280: 5a90 76be 1f20 21bf 8ddf 55be 256c 39be
00000290: 81b8 76be a4cf 57be 45c9 16be 54c0 67be
000002a0: b974 a83e b011 853e 3d70 82be 87aa c23e
000002b0: 86a7 ac3e b519 d2bd fddd afbe f458 073f
000002c0: f895 8fbe ee39 d0be f82a babe 7ffa 07bf
000002d0: c988 0b3e 5020 ecbd 12e0 e53e 6384 823e
000002e0: 857e b63e 16cf ec3e 1338 9a3e cae4 b93e
000002f0: c862 6c3e 5402 b3be 42f9 dcbe e4e8 dbbe
00000300: e08f 37be cfed 1ebe 13bf 603e 60c5 92bd
00000310: e116 9e3e cf26 0d3d a287 f23e 18a6 40be
00000320: badd bc3e 1382 9d3e 7b26 e33e 374b 12bd
00000330: 24c0 98be 6ef4 40be 5d79 043f fc9d 9bbe
00000340: 5f43 03bd 2a89 b2be 9c79 04be c1f2 913e
00000350: 04be bbbe 7789 26bd 2ce9 87be 3898 a9be
00000360: 37f0 ec3e d076 babe af6e cebe 9c3d 00bf
00000370: d5bd 22be 6746 c93e 3a81 a9be 9fd1 9e3e
00000380: 93a1 8cbe 1e3c 68bd e53b c1be 8b88 9dbe
00000390: 537e b3be dc29 1cbe 4794 f63c 3a2a c03e
000003a0: f8e4 d93e c9af 4dbe f13d 19bf 4e2c 17bd
000003b0: a379 cb3e 5feb cf3e cfc5 b93e c46c 44be
000003c0: 407e d5be ef47 673e 15a9 f3be 4441 033f
000003d0: 5f6f 513e dfd0 473e 9051 873e 8284 a8be
000003e0: 0a1f f63e bff0 fd3e 4d3b f9bd 71ad cdbc
000003f0: 474a b13e 27fd f8be 7711 4d3e d6e7 cabe

fc2.bias f4 [10]
0.24941313 -0.529872 0.015007539 0.55440474 0.21025145 -0.49904767 0.88939553 -0.3299991
-0.4064546 -0.4330831
00000000: 2866 7f3e b1a5 07bf 2ee2 753c 78ed 0d3f
00000010: 284c 573e 2d83 ffbe 6daf 633f a4f5 a8be
00000020: d11a d0be 11bd ddbe
