exercises/1_5_CNN_Layers/saved_models/fashion_net_simple.pt (torch_old, 28781 bytes, 6 tensors)

conv1.weight f4 [10, 1, 3, 3]
0	0x3f02b094	0.51050687
1	0x3f01c46b	0.50690335
2	0x3edc1928	0.42987943
3	0x3e56d1e5	0.20978506
4	0x3ea75b80	0.32686996
5	0x3ef2b489	0.47403362
6	0x3e851ac9	0.25996998
7	0x3d0f6af6	0.035014115
8	0x3e0acaf1	0.13553979
9	0xbc5c8ee4	-0.013461802
10	0xbea1116a	-0.31458598
11	0x3d012607	0.031530406
12	0x3ecb2838	0.39679122
13	0x3e53dd43	0.20689873
14	0xbe2524ac	-0.1612727
15	0xbc9b1b93	-0.018934047
16	0x3d769a46	0.06020572
17	0xbdaa0989	-0.083026
18	0xbe8aa46b	-0.27078566
19	0x3e382a7a	0.17984954
20	0x3e7f2ea3	0.24920134
21	0x3d3d4dc1	0.04621673
22	0x3d96de42	0.07366611
23	0xbe952bf8	-0.29135108
24	0xbdd23fd4	-0.102660805
25	0xbe8f0e46	-0.27940577
26	0x3e79deef	0.24401449
27	0x3e61789e	0.22018668
28	0xbe8dfb13	-0.27730617
29	0x3e7e1424	0.2481237
30	0x3e60e8a9	0.21963753
31	0xbf1444a6	-0.5791725
32	0xbe8bbb62	-0.272914
33	0x3ea12f42	0.31481367
34	0xbee726bd	-0.45146742
35	0xbdc11c37	-0.0942921
36	0x3e932a5e	0.2874326
37	0x3eb805ba	0.3594187
38	0x3f08868e	0.53330314
39	0x3f2d5fbd	0.6772421
40	0x3f56ff15	0.83982974
41	0x3efb6778	0.49102378
42	0x3e9c69a9	0.30549362
43	0x3f1a5ba9	0.6029611
44	0x3ef6f257	0.48231766
45	0xbea7af51	-0.32750943
46	0xbe91cf70	-0.28478575
47	0xbd156b1a	-0.036479093
48	0x3e3bd978	0.18344676
49	0x3e9a45da	0.30131418
50	0x3d3fe29c	0.04684697
51	0x3d06c2dc	0.032900676
52	0xbea874ba	-0.32901555
53	0x3e5bfc50	0.21482968
54	0x3e4786c4	0.19485003
55	0x3e3c38ab	0.18380992
56	0xbdccfb74	-0.100088984
57	0xbe02e982	-0.12784389
58	0x3e79eab4	0.24405938
59	0xbe27a61f	-0.16371964
60	0xbe8389da	-0.2569111
61	0xbe64cd9c	-0.22344059
62	0x3e0099b0	0.12558627
63	0x3eb5f89e	0.35541242
64	0x3f6bb174	0.92067647
65	0x3efc4d35	0.49277654
66	0x3f223ae1	0.6337109
67	0x3f3f259b	0.74666756
68	0x3f32def2	0.6987144
69	0x3f349d8d	0.70552903
70	0x3f682f8a	0.9069754
71	0x3ed0b249	0.4076102
72	0x3ba76c05	0.0051093125
73	0xbebc5074	-0.3678013
74	0xbda56d0f	-0.08077442
75	0xbe9e1997	-0.30878899
76	0xbeb3604c	-0.35034406
77	0x3ee242fd	0.44191733
78	0x3db25ce7	0.08709126
79	0x3dc2e943	0.095171474
80	0x3eedf3e3	0.46475133
81	0x3d6c89a1	0.05774844
82	0x3dad54dc	0.08463451
83	0xbde211a2	-0.110385194
84	0xbcc9a016	-0.024612468
85	0xbe5ff113	-0.21869306
86	0xbe5b1783	-0.21395688
87	0xbd9d1ed4	-0.076718956
88	0x3e43b4a2	0.19111875
89	0xbbbe6d68	-0.005811382

conv1.bias f4 [10]
0	0x38ad8a10	8.274999e-05
1	0x3ce888c7	0.028385533
2	0xbe757900	-0.23971939
3	0x3f1a29c7	0.6022
4	0x3d821ec5	0.06353525
5	0xbe66e65d	-0.22548814
6	0xbe4a3002	-0.19744876
7	0x3e9b7f03	0.3037034
8	0x3c63445e	0.0138712805
9	0xbc5bece1	-0.013423176

conv2.weight f4 [20, 10, 3, 3]
0	0x3dcff09f	0.10153317
1	0xbdda53ed	-0.10660539
2	0xbe0ed06d	-0.13946696
3	0x3d3c8b8f	0.04603153
4	0x3c834719	0.016025113
5	0xbcb3338d	-0.021875167
6	0xbdda4e23	-0.10659435
7	0x3d26b0b0	0.040695846
8	0x3d396f5f	0.045272227
9	0x3c48077d	0.012208817
10	0x3df44d11	0.11928762
11	0x3d5decc4	0.054180875
12	0x3c43f355	0.01195987
13	0x3cfa1a4d	0.03053012
14	0x3da113dd	0.07865117
15	0x3d47685f	0.04868352
16	0x3da79503	0.081827186
17	0xbcef62c7	-0.029221905
18	0xbdc26fe1	-0.094939955
19	0xbd4a4be2	-0.049388774
20	0x3dc84b8f	0.09780037
21	0x3caffe18	0.021483466
22	0xbd8ffd0b	-0.07030686
23	0x3be52c82	0.006993831
24	0xbd9f8a88	-0.077900946
25	0x3cc86048	0.024459973
26	0x3d076883	0.033058655
27	0x3e28c1d4	0.1648019
28	0x3e54f9eb	0.20798461
29	0x3e1a9cc9	0.15098871
30	0xbc18be5c	-0.009322729
31	0x3e18ce50	0.14922452
32	0x3d837a0c	0.06419763
33	0x3cca0205	0.024659166
34	0x3daf2c97	0.08553427
35	0x3d98f76c	0.07469067
36	0xbd1f7ca8	-0.03893724
37	0xbbed0fa1	-0.007234529
38	0xbe10dd0b	-0.14146821
39	0xbdc28e59	-0.09499807
40	0x3cc7010c	0.024292491
41	0xbceb6972	-0.028736804
42	0xbda331aa	-0.07968457
43	0x3cc7d8a1	0.024395289
44	0x3d7e07fe	0.06201934
45	0xbd313e3c	-0.043272242
46	0x3dc03289	0.09384639
47	0xbd29811e	-0.0413829
48	0x3c1f21fe	0.009712694
49	0x3dd55924	0.10417393
50	0xbd56af2a	-0.052413143
51	0xbd864e2d	-0.065578796
52	0xbdaf9eed	-0.085752346
53	0x3de053c5	0.10953478
54	0xbdbc9007	-0.092071585
55	0x3d722786	0.059119724
56	0x3db4ad5c	0.08822128
57	0x3cd59663	0.026072687
58	0x3a8fee27	0.0010981009
59	0xbd54841b	-0.051883798
60	0xbd4dcd0a	-0.05024437
61	0x3dd91f24	0.10601643
62	0x3d6eb9c5	0.058282632
63	0x3df816fe	0.121137604
64	0xbdc85553	-0.09781899
65	0xbd113eb2	-0.03546018
66	0x3ddce4a6	0.10785799
67	0xbdcbbbe3	-0.09947946
68	0x3d62a58e	0.055333667
69	0x3d9b2d1d	0.07576964
70	0x3d84ffbf	0.06494092
71	0xba7a1b29	-0.00095407903
72	0x3c38e99d	0.0112861665
73	0xbc4adbcf	-0.012381508
74	0xbbb8a813	-0.0056352704
75	0xbcffaf4e	-0.031211521
76	0x3dce5b96	0.100760624
77	0xbd88ad06	-0.066736266
78	0x3d0f8788	0.035041362
79	0x3dda749e	0.10666774
80	0x3d8dae05	0.06917957
81	0x3d16703f	0.03672814
82	0xbd718278	-0.058962315
83	0x3db46dc4	0.08809999
84	0x3da8e42e	0.08246647
85	0xbc68a845	-0.014200275
86	0x3cb257b3	0.021770334
87	0x3dc9e676	0.0985841
88	0x3d7f445d	0.062321056
89	0x3db21857	0.08696049
90	0xbdca3d06	-0.098749205
91	0xbd2daa26	-0.042398594
92	0xbd099a39	-0.033594344
93	0x3d3c0803	0.045906078
94	0x3d823f6c	0.06359753
95	0x3e1417b8	0.14462173
96	0xbe2186a0	-0.15774012
97	0x3db62178	0.088931024
98	0x3b12a386	0.00223753
99	0x3d9f86ca	0.07789381
100	0xbbc2f050	-0.0059490576
101	0x3d53d8b8	0.05172035
102	0xbd74296a	-0.059609808
103	0x3c1b571d	0.009481219
104	0x3c6f1a18	0.014593624
105	0xbdb3014b	-0.08740481
106	0x3d95eda1	0.07320715
107	0xbd042724	-0.03226389
108	0x3dce0ac5	0.10060648
109	0x3da2c8f0	0.07948482
110	0xbc2395e1	-0.009984464
111	0x3c96df69	0.018417077
112	0xbd498b0e	-0.04920488
113	0x3dc8e9ce	0.0981022
114	0x3da89463	0.082314275
115	0xbdaf0ca0	-0.0854733
116	0xbd9bbc88	-0.07604319
117	0x3da10c74	0.07863703
118	0xbc27cba9	-0.010241427
119	0x3d595fec	0.053069994
120	0x3c24d021	0.010059387
121	0x3d24e4e1	0.04025734
122	0x3da27bbb	0.07933756
123	0x3d79e5a1	0.061010007
124	0xbe1315f1	-0.14363839
125	0xbd6e8e4a	-0.058241166
126	0xbde50fa0	-0.11184621
127	0x3d385998	0.04500732
128	0x3e04183d	0.12899871
129	0xbe289482	-0.16462901
130	0x3e173291	0.14765383
131	0x3d8624cd	0.06549988
132	0xbd9473ec	-0.07248673
133	0x3e09a408	0.13441479
134	0x3d09798a	0.033563174
135	0x3d6d1308	0.057879478
136	0x3d7fe52d	0.06247442
137	0x3cee82be	0.029115077
138	0xbbced323	-0.0063117906
139	0x3d48d611	0.049032275
140	0xbd3eee6c	-0.046614096
141	0x3d43938e	0.04774814
142	0xbc942225	-0.018082688
143	0xbd782ca8	-0.060589463
144	0x3c3aa71a	0.011392379
145	0xbc498a0a	-0.0123009775
146	0xbccf749e	-0.025324162
147	0xbd8a1014	-0.06741348
148	0x3db7a946	0.08967833
149	0x3b9edd78	0.0048481785
150	0x3d547f3a	0.051879145
151	0x3db8a8aa	0.09016545
152	0xba8d489d	-0.0010779087
153	0xbec1e6e2	-0.37871462
154	0xba2f5385	-0.00066881656
155	0x3db8b27c	0.09018418
156	0xbe893215	-0.26796022
157	0x3d15e615	0.036596376
158	0x3e7059fd	0.23471828
159	0xbdf72d19	-0.120691486
160	0x3e2a2e34	0.16619188
161	0x3d7ded7d	0.061994065
162	0x3e268de6	0.16265067
163	0x3d9bbbeb	0.07604202
164	0x3dadd220	0.08487344
165	0x3df3b7d7	0.11900299
166	0x3dee04eb	0.11622032
167	0x3d2e95cd	0.04262333
168	0x3dd80e39	0.10549588
169	0xbc4205c7	-0.011842198
170	0xbda4f70a	-0.080549315
171	0x3c95ec96	0.01830129
172	0xbd9ffa27	-0.07811385
173	0x3cf1e931	0.02953014
174	0x3d808523	0.06275394
175	0x3da8a7da	0.0823514
176	0xbd3f2a97	-0.046671476
177	0x3cc564f3	0.024095988
178	0xbdc06224	-0.09393719
179	0xbd84a7a5	-0.06477288
180	0xbe9babf3	-0.30404624
181	0xbea3fa0f	-0.32026717
182	0xbe1f77db	-0.15573065
183	0xbd7633f5	-0.060108144
184	0xbd744fb1	-0.059646312
185	0x3cc9c7f0	0.02463147
186	0x3dcb61de	0.09930776
187	0x3deb68e2	0.11494614
188	0x3e087a95	0.13328011
189	0x3ce65b5c	0.028119735
190	0xbdedbb6f	-0.11608016
191	0x3d9ddbb6	0.07707922
192	0x3d6dbe29	0.05804268
193	0x3db98526	0.09058599
194	0x3dbd954f	0.09256994
195	0xbc938eca	-0.018012423
196	0x3d937fe0	0.072021246
197	0x3df24e82	0.118313804
198	0x3dcf0c76	0.101097986
199	0xbc770c60	-0.015078634
200	0xbcf3f39e	-0.029779252
201	0xbd0c2388	-0.034213573
202	0x3da83ebb	0.0821509
203	0x3d2cda9b	0.042200666
204	0x39aca088	0.00032926002
205	0xbdada554	-0.084787995
206	0xbda35785	-0.079756774
207	0x3dccd338	0.10001224
208	0x3dc94437	0.09827464
209	0x3e488e52	0.19585541
210	0x3dbaa86c	0.09114155
211	0x3e280ecc	0.16411895
212	0x3d4684be	0.048466437
213	0x3d4d950f	0.05019098
214	0xbc65f4fe	-0.0140354615
215	0x3d406c3a	0.046978213
216	0xbe6d3988	-0.23166478
217	0xbea232e7	-0.3167946
218	0xbe7a769d	-0.2445931
219	0x3be2d20e	0.006922013
220	0xbbd1777a	-0.0063924165
221	0x3c42d827	0.011892355
222	0x3e5a5394	0.21320945
223	0x3e826bf8	0.25473
224	0x3e252bb7	0.16129957
225	0xbd5503ee	-0.0520057
226	0xbc724e16	-0.014789125
227	0xbcaf9162	-0.021431629
228	0x39bd69d1	0.00036127729
229	0x3d160672	0.03662724
230	0x3da41d33	0.08013382
231	0x3d8214e9	0.063516445
232	0x3dee0740	0.116224766
233	0xbcee5ab6	-0.029095989
234	0x3c4a69d1	0.01235433
235	0xbd7c3e39	-0.061582778
236	0x3de7cb57	0.11318081
237	0x3d956f08	0.07296568
238	0x3d636064	0.055511847
239	0x3ca8ddb0	0.020613521
240	0xbd6aa8e8	-0.057289988
241	0xbd9e09a5	-0.07716683
242	0xbd05c117	-0.032654848
243	0xbeb5ccf6	-0.35507935
244	0xbeb82e6b	-0.35972914
245	0xbe8d095f	-0.27546212
246	0x3e1c3ff1	0.15258767
247	0x3ad7294e	0.0016415508
248	0x3d8cecc1	0.06881095
249	0x3ea15936	0.31513375
250	0x3e99cc4f	0.30038688
251	0x3e970481	0.29495624
252	0x3d624d33	0.055249404
253	0x3c852a53	0.016255533
254	0x3e644899	0.22293319
255	0x3d2c76f4	0.04210563

conv2.bias f4 [20]
0	0x3e52ca97	0.20585094
1	0x3be0d380	0.0068611503
2	0x3e4c4bfb	0.19950859
3	0xbd1d0aa9	-0.038340244
4	0x3d652463	0.055942904
5	0x3ce78efb	0.02826642
6	0xbd8f36f5	-0.06992904
7	0xbcbf270a	-0.023334045
8	0xbd9e5dc1	-0.07732726
9	0xbcdce78d	-0.02696588
10	0xbdaed336	-0.08536379
11	0x3e0924ab	0.13392894
12	0xbd3f4849	-0.046699796
13	0x3bbc0188	0.005737487
14	0x3d4d9b5a	0.050196983
15	0xbb3a8266	-0.0028459071
16	0x3e2160bd	0.15759559
17	0xbdee1e81	-0.11626912
18	0xbdd443e6	-0.10364513
19	0x3d30d65d	0.043173183

fc1.weight f4 [10, 500]
0	0x3d847473	0.064675234
1	0x3d533832	0.051567264
2	0xbb6bf2a2	-0.0036002775
3	0x3c5ca087	0.013466007
4	0x3d28f821	0.04125226
5	0xbc23ec9c	-0.010005143
6	0xbc969585	-0.018381843
7	0x3c47a5a1	0.012185485
8	0xbb57f290	-0.0032950975
9	0xbd6a4c89	-0.057201896
10	0xbc834fdd	-0.016029293
11	0xbcb23919	-0.021755742
12	0x3c162c12	0.009165781
13	0x3cbd9e67	0.023146821
14	0x3cd94e26	0.026526522
15	0x3d90fc7d	0.07079408
16	0x3d4a48af	0.049385723
17	0x3c3ac9a0	0.01140061
18	0x3cba6ca5	0.022756884
19	0x3d73f1ec	0.059556887
20	0x3d4cbead	0.04998653
21	0xbd22e4f4	-0.039769128
22	0x3d0c5211	0.034257952
23	0xbbcd806f	-0.006271414
24	0x3d3ef59a	0.046620943
25	0x3c1972a4	0.009365711
26	0xbc3fa079	-0.0116959745
27	0xbd901512	-0.07035269
28	0x3b96edbc	0.004605977
29	0x3c8f226c	0.017472468
30	0x3c2fa8e7	0.010721422
31	0xbd075a41	-0.033045057
32	0xbd618a1b	-0.05506335
33	0x3c089b1d	0.008337763
34	0x3d4c8e53	0.04994042
35	0x3cbdc5ee	0.02316567
36	0xbcdc0125	-0.026856015
37	0xbd324f3f	-0.043532606
38	0x3c1a945b	0.009434785
39	0x3b295815	0.0025839854
40	0x3cdbd8c5	0.026836762
41	0x3c4f7c78	0.012663953
42	0x3c2b838d	0.010468376
43	0x3bbdd156	0.005792777
44	0x3cda6e1b	0.02666383
45	0xbbf56a63	-0.007489489
46	0x3d00e793	0.031470846
47	0xbd8fcb26	-0.07021169
48	0xbd576267	-0.05258408
49	0xbd447e5a	-0.04797206
50	0x3cc594a6	0.024118733
51	0x3a3adb90	0.0007128054
52	0x3ddefc6a	0.10887988
53	0x3d5f6473	0.054539155
54	0xbd8f8730	-0.07008207
55	0xbcb0a575	-0.021563271
56	0x3d84e8a1	0.06489683
57	0x3e1d4129	0.15356888
58	0x3e0d904f	0.1382458
59	0x3d225847	0.03963497
60	0xbd184fec	-0.037185594
61	0x3b7d9b7a	0.0038697408
62	0x3db3d01d	0.08779929
63	0x3db0d060	0.086334944
64	0xbc2b8832	-0.010469483
65	0xbc9dd82a	-0.019268114
66	0x3cb60286	0.022218
67	0x3d08bc8d	0.03338294
68	0x3b50a4b3	0.003183645
69	0x3d86ceb3	0.065823935
70	0x3b993297	0.00467522
71	0x3c65f65e	0.014035789
72	0x3cc09912	0.02351049
73	0x3c54e6b7	0.01299446
74	0x3c0f676f	0.008752688
75	0x3c90e422	0.017686907
76	0xbbdcb4bb	-0.006735412
77	0x3b539d68	0.0032289866
78	0x3cd560ff	0.026047228
79	0x3d29fe1c	0.041502103
80	0xbb8ec170	-0.0043565556
81	0x3d0c5321	0.034258965
82	0x3d03ca57	0.03217539
83	0x3c5f25a2	0.013619812
84	0x3c9f997b	0.019482365
85	0xbcd81694	-0.026377954
86	0x3c5d07be	0.013490615
87	0xbc535ae6	-0.01290009
88	0x3c9b6672	0.018969748
89	0x3d197637	0.037466254
90	0xbd324fed	-0.043533254
91	0x3d0f6f6e	0.035018377
92	0xbd0f2e1c	-0.034956083
93	0xbce819b5	-0.02833257
94	0xbcd3abd2	-0.025838766
95	0xbc3a4ed1	-0.01137133
96	0x3c99dca2	0.018781964
97	0xbd2279b0	-0.03966683
98	0x3d097846	0.033561967
99	0x3c627749	0.013822385
100	0x3e0bf5fc	0.13668054
101	0xbd390331	-0.04516906
102	0x3d4176f8	0.047232598
103	0x3d37fcfa	0.04491899
104	0x3d162cf2	0.036663957
105	0x3e0d9e04	0.1382981
106	0x3d45f6b5	0.04833098
107	0x3d218fa7	0.03944364
108	0x3d19adc3	0.037519228
109	0x3d721c73	0.059109163
110	0x3dd82d62	0.10555531
111	0xbbc11cdb	-0.0058933324
112	0xbd14f4a4	-0.03636612
113	0x3d82e332	0.0639099
114	0x3da38093	0.07983508
115	0xbcc31671	-0.023814412
116	0xbd03c47f	-0.032169815
117	0x3c4a7b8c	0.012358557
118	0xbba14be2	-0.004922376
119	0x39cf2a85	0.00039513796
120	0xbdb638c2	-0.088975444
121	0x3c834c28	0.016027525
122	0xbd673e0e	-0.056455664
123	0xbdb81031	-0.08987463
124	0x3d1cd343	0.038287412
125	0xbd0f11cb	-0.034929078
126	0x3d9f8456	0.07788913
127	0x3d93c98f	0.072161786
128	0x3cdbc315	0.02682642
129	0x3c8868b9	0.016651498
130	0x3d5cc252	0.053896256
131	0x3c657660	0.014005274
132	0x3cc845a1	0.024447264
133	0x3cb210d0	0.021736532
134	0x3d8acaf9	0.06776995
135	0x3cbc1c1f	0.022962628
136	0x3d98c36d	0.074591495
137	0xbc9201c8	-0.017823115
138	0x3b1d4830	0.0023999326
139	0xbb9c9d26	-0.0047794757
140	0xbc8c7c57	-0.017149134
141	0x3d45a640	0.04825425
142	0x3beb3967	0.0071784738
143	0xbd002ada	-0.031290866
144	0x3d15bfc4	0.036559835
145	0x3cc08156	0.023499172
146	0x3ce61c3c	0.028089635
147	0xbc2a4bfd	-0.010394094
148	0xbcf69547	-0.030100478
149	0xbd886b85	-0.06661133
150	0x3ceba345	0.028764376
151	0x3c7e09ce	0.015505267
152	0xbc9895da	-0.018626142
153	0xbb1f7185	-0.0024329138
154	0x3da0610d	0.07831011
155	0x3e2dd51a	0.16975823
156	0x3d8316be	0.06400822
157	0x3c14fc4e	0.009093357
158	0xbc2b5ce7	-0.010459161
159	0xbbe54ddf	-0.0069978083
160	0x3badc953	0.0053035407
161	0xbd88b08a	-0.06674297
162	0xbb0f91e2	-0.0021907021
163	0x3c061af2	0.008185135
164	0xbdbf06c6	-0.09327464
165	0xbc8de465	-0.017320821
166	0xbd31099c	-0.043222055
167	0x3d2c246c	0.042026922
168	0x3d4ff12b	0.050767105
169	0xbddfcf11	-0.10928167
170	0xbd8c7bc9	-0.06859548
171	0x3d645192	0.055741854
172	0x3c20b3b7	0.009808472
173	0xbca01a45	-0.019543776
174	0x3cf814d4	0.03028337
175	0xbd129c35	-0.035793502
176	0x3ce6c707	0.028171076
177	0xbcd71d13	-0.02625898
178	0xbdd40c07	-0.103538565
179	0xbe0c386a	-0.13693395
180	0x3d38693d	0.045022238
181	0x3d47fae8	0.048823267
182	0xbd297540	-0.041371584
183	0x3b13c5f1	0.0022548402
184	0xbd9f0cfc	-0.077661484
185	0x3b37d6b2	0.0028051552
186	0x3d194e90	0.03742844
187	0x3c181f19	0.009284758
188	0xbc8a3a8b	-0.016873619
189	0x3c7f5ada	0.015585626
190	0x3d72b56a	0.05925504
191	0xbd06f308	-0.032946616
192	0x3d2b1301	0.04176617
193	0x3bf6f89c	0.0075369608
194	0x3d2ec861	0.042671565
195	0xbc6a6a14	-0.014307518
196	0xbd9481b7	-0.07251304
197	0xbccf5471	-0.02530882
198	0xbbda5697	-0.0066631543
199	0x3dab19fc	0.083545655
200	0x3d644759	0.055732105
201	0xbc957d9a	-0.018248368
202	0x3d8c001c	0.06835958
203	0xbaab4612	-0.0013067147
204	0x3ce378d7	0.027767582
205	0xbc2f1479	-0.010686033
206	0xbce5f4b3	-0.028070783
207	0x3c83b63b	0.016078105
208	0x3c9eec91	0.019399913
209	0xbb8f683b	-0.004376439
210	0x3c0d00f2	0.008606182
211	0x3bdd3a3e	0.006751328
212	0xb8e55d76	-0.000109369794
213	0x3c44beef	0.012008413
214	0x3cd9a56c	0.026568137
215	0x3cb1568a	0.02164771
216	0xbcf14ef8	-0.0294566
217	0x3d0f7957	0.035027828
218	0xbc99f768	-0.01879473
219	0xbcd1c51a	-0.02560668
220	0xbd8ab12b	-0.06772073
221	0x3c353f8d	0.011062515
222	0xbbfb8c9a	-0.007676673
223	0x3d0f8308	0.03503707
224	0xbd3ba944	-0.04581572
225	0xbc29ecea	-0.010371426
226	0x3d59e3c4	0.05319573
227	0x3d8c90f6	0.068635866
228	0x3d8c3260	0.06845546
229	0xbcbf9596	-0.023386758
230	0x3d6c7cb0	0.0577361
231	0x3b1c42ac	0.002384345
232	0x3cd6fb52	0.026242886
233	0x3d9cbc5c	0.07653114
234	0xbd24260e	-0.040075354
235	0x3d551a94	0.0520273
236	0x3d622649	0.055212293
237	0xbd1ccfee	-0.038284235
238	0x3a42e028	0.00074339146
239	0xbd8d1952	-0.06889595
240	0xbcf130f9	-0.029442297
241	0x3cd75deb	0.0262899
242	0xbc57fe5c	-0.013183203
243	0xbbc10485	-0.0058904313
244	0xbd9818b8	-0.0742659
245	0x3de01305	0.10941128
246	0x3ac3afbb	0.0014929691
247	0xbc083d77	-0.008315436
248	0x3be34aed	0.006936422
249	0xbdebc42f	-0.115120284
250	0x3d145ca0	0.036221147
251	0xbd044816	-0.03229531
252	0xbc326acd	-0.010889721
253	0x3d1cc794	0.03827627
254	0x3c0b49ee	0.008501513
255	0x3dcdd7a8	0.10050899

fc1.bias f4 [10]
0	0x3d058d09	0.032605205
1	0xbd6e826c	-0.05822985
2	0x3d858d94	0.065211445
3	0x3d5ffe4c	0.054685876
4	0xbddf4e03	-0.109035514
5	0x3dd12098	0.10211295
6	0xbaae22af	-0.0013285483
7	0x3d371583	0.04469825
8	0x3cca126f	0.024666993
9	0xbce2d00d	-0.027687097
